model_SSRNet_batch40_epoch148.pth (torch, 223215 bytes, 93 tensors)

module.stream1_stage3.0.weight f4 [32, 3, 3, 3]
00000000: b7ee cf3d b347 623c 92da 23be a12b 1bbb
00000010: 0878 c03c 0c0a a0ba bb11 77be b2c3 483e
00000020: 1bc1 e5bc ba7f 033e f12e c33d 4525 61be
00000030: 660e 05be 7c9a fd3d 174d b7bc 0314 39be
00000040: 77b9 3a3e 776c eab9 5e49 5e3e b56c b5bb
00000050: 1493 e4bb 2874 a9bc 81db 54bd 820b e7bd
00000060: 012b 36be 77c3 323d 7c97 c13d d45a b3bd
00000070: d43c 67bc 9660 153e bd12 3ebe 3ab2 67be
00000080: 3e3a 3abd 596b 123e 000f 883e adb6 5b3d
00000090: fa9d bdbd cf15 c73d 8c5c 82bb a57f 88b9
000000a0: 266b 35be 0b67 02bc d234 d13d 23dc 76bd
000000b0: 2387 833d 0376 0abe ec21 0f3e 77a4 e13d
000000c0: debf 16be d81d 28be 25ef 1a3e 25cc df3c
000000d0: 82c0 433e 4a4b 17be e815 d53b 07f8 40be
000000e0: 6b54 16be e7f8 c73d 7ce9 a23d 4b8f 2abe
000000f0: 3367 0e3c 3446 8d3d cd64 a7bc 2fdf 3ebc
00000100: 7138 14bd d460 5abe b606 8b3d 9606 943d
00000110: f357 6d3c a608 10bd a92a ef3d dde6 a33d
00000120: 0cbb 123e 1638 c33c e3de 28be af56 02bd
00000130: 6d2b 693e 647d c3bc 1986 84bd cf90 893d
00000140: 5c7a 4abc dca2 1bbd d8e0 40be 0f55 abbd
00000150: 86c2 6cbd 2d47 ff3a bd42 df3d 78b5 27b8
00000160: 4936 8d3b 2f3e 483e 2132 20be 78f0 00be
00000170: 1ab0 08be bae0 623d 89b0 083e 67db d33d
00000180: 3f10 093d 96c3 b53d c271 1d3e 6358 42bd
00000190: f342 52bc b188 193d dc03 953c 9cef d6bb
000001a0: 77aa 16bd 7067 6ebc 39e2 09be 4f18 cf3d
000001b0: 5200 dfbd a21c 3ebd cedf 7ebd de81 f7bc
000001c0: 9815 053e 8656 133c d48c bcbc af68 893d
000001d0: b780 143e 3504 313e 9899 963d 2eb2 283d
000001e0: d94f 873d 50e3 9b3d 052a 11be 0783 d73d
000001f0: c53f 7bbd 64a8 23be 74f4 773b aab5 e63d
00000200: ffbb 1f39 4270 863d eb6e 80bd 01cf 86be
00000210: e569 35be e304 9e3c 42bc 15be 69b4 9c3d
00000220: 22e6 ed3b d3c3 5e3e 7b2c ee3d c55d 253d
00000230: f75f 90bd baca b73d f2e5 1d3e 364e 803c
00000240: 5687 41be 9bdb 6fbc ab85 4f3d b79b 6fbe
00000250: 75a3 1bbe cd41 28be 26e3 a2bd 5a23 7dbe
00000260: 4568 d43d a203 18be 06e5 8dbc 2279 6dbc
00000270: 76e4 ceba 7900 92bc ecb4 9f3b 77f8 e13c
00000280: 60ab e1b9 547d bf3c 2f5b f03d b60c 1e3e
00000290: 4d75 e9bd b150 9c3d 2dc9 9e3d a00e 263d
000002a0: 6195 e9bc c946 0abe 529c 46be 91cb 1ebd
000002b0: dbca 92bd ee74 89bd 7779 323c fa03 2d3e
000002c0: 38b8 9c3d fa32 8cbd af4a 04be 9a28 d63d
000002d0: d0d5 70bc add3 f9bd 0712 0abd 4605 92bc
000002e0: 8074 70be afe4 a23e 9e7f aebd 758b d0bc
000002f0: 249d 853e c8f9 dc3d 0c82 753d 6573 8cbd
00000300: 7f11 233d 29d5 37bd 3e1b 583d de3c 673d
00000310: 3c01 f2bc d48a bdbd 36d1 01ba b50b aebc
00000320: 5596 823d 21d2 92be 3b0e a83c 05f6 143e
00000330: d6a9 86bd bb59 293e 34dd 563e 4cc0 adbd
00000340: 1448 90bd 1599 cdbd 83bd bfbd 5c8b 0fbe
00000350: 159b eabc ee62 3dbd be56 0a3e cfa3 b03d
00000360: 5910 083e 0055 f83d fa81 3c3e 843b 1dbe
00000370: e164 393d 6797 7e3d fd3e 14be b6ee 23be
00000380: 36f4 47bb b349 1a3e e988 f53d 5a71 f23d
00000390: 7e63 16be 6a3f a6bb d2d3 793d 217a 11be
000003a0: 52bc d7bd e13e 5dbe 0ef1 8e3d edeb a33d
000003b0: fd12 b7bd b6c5 92bc 3815 cbbc 30a9 663d
000003c0: bb6a 473d 16b8 90bb 91b6 74bd 9162 4d3e
000003d0: e903 4c3d 836d 033d ad8b 8a3d 0aa1 8fbd
000003e0: 350a 2a3d 22d7 08be 14c0 47bd a46e 2ebe
000003f0: 9ac7 d93c e86a 33be 809f 153e b64b 563b
0.10152953 0.01381104 -0.16001347 -0.0023677128 0.023494735 -0.0012210025 -0.24127857 0.19605902
-0.028046181 0.12841693 0.09530438 -0.21986873 -0.12993774 0.12382981 -0.022375626 -0.1807404
0.18234812 -0.0004471277 0.21707675 -0.0055366405 -0.006975541 -0.02068527 -0.051967148 -0.11281492
-0.17789842 0.04364344 0.094527215 -0.087575585 -0.014113624 0.14587626 -0.18561836 -0.22626582
-0.0454657 0.14298762 0.26573944 0.05364101 -0.09258647 0.097209565 -0.0039783176 -0.00026035044
-0.17716655 -0.007959138 0.10215153 -0.060268532 0.0642226 -0.1352158 0.13977784 0.11017697
-0.14721629 -0.16417634 0.15130289 0.027319023 0.19116405 -0.14774814 0.0065028556 -0.18844615
-0.1468064 0.09764271 0.0795469 -0.16656224 0.008691597 0.06898156 -0.020433808 -0.011649891
-0.03618664 -0.21326 0.067883894 0.07227819 0.014486301 -0.035164498 0.11678059 0.08003018
0.14329165 0.023830455 -0.16491275 -0.03182095 0.22770472 -0.023863502 -0.064708896 0.06717073
-0.012358274 -0.03799711 -0.18835771 -0.08365833 -0.0578027 0.0019476168 0.10901401 -3.998491e-05
0.00430945 0.19554971 -0.15644123 -0.12591732 -0.13348427 0.055390097 0.13348593 0.10344582
0.03346276 0.08875196 0.15375426 -0.047447573 -0.012833345 0.037483875 0.018190317 -0.0065593254
-0.03678366 -0.014551029 -0.13465203 0.10112058 -0.10888733 -0.046414025 -0.062225156 -0.030213293
0.12996519 0.008992797 -0.02301637 0.0670942 0.14502226 0.17286761 0.073535144 0.04118555
0.066070266 0.07611716 -0.14176185 0.10523038 -0.061340112 -0.15982205 0.0037834914 0.112651184
0.00015233456 0.0656438 -0.06271156 -0.26329806 -0.17716177 0.01928944 -0.14622596 0.07651598
0.0072601 0.21754389 0.11629578 0.04037263 -0.07049554 0.08974214 0.15419748 0.015662294
-0.18899283 -0.01463976 0.050664585 -0.23399244 -0.15199073 -0.16431351 -0.079534814 -0.24720517
0.1037145 -0.14845136 -0.017321121 -0.014494212 -0.0015784639 -0.017822491 0.0048738625 0.027584298
-0.0004304303 0.02337519 0.11736142 0.15434536 -0.113993265 0.07632578 0.07753215 0.04054129
-0.028513612 -0.13503565 -0.19395569 -0.038768355 -0.07167598 -0.06711756 0.010893217 0.16896048
0.076523244 -0.068456605 -0.12919115 0.10456963 -0.014699414 -0.12198577 -0.0337086 -0.01782478
-0.23481941 0.31815097 -0.08520435 -0.025457123 0.2609645 0.107898295 0.059938475 -0.06857947
0.039811607 -0.04488102 0.052760355 0.05645453 -0.029541604 -0.09254995 -0.00049521343 -0.021245817
0.0637633 -0.2867594 0.020514598 0.14546974 -0.065753624 0.16538136 0.2098282 -0.08483943
-0.07044998 -0.10038964 -0.09362318 -0.14018005 -0.028638402 -0.046236925 0.13509652 0.08624994
0.13287486 0.121255875 0.18408957 -0.15354735 0.04526222 0.062156107 -0.14477153 -0.1600903
-0.0030510551 0.15067177 0.11989004 0.11838026 -0.14686391 -0.0050734775 0.060993023 -0.14206745
-0.10533966 -0.21606018 0.06979571 0.08003984 -0.089391686 -0.017916542 -0.024790391 0.056313694
0.04868577 -0.004416476 -0.05974442 0.20057131 0.049808417 0.03208686 0.06764922 -0.07013138
0.04151364 -0.13363317 -0.048767164 -0.17034394 0.026584435 -0.1752125 0.14611626 0.0032698936

module.stream1_stage3.0.bias f4 [32]
00000000: 7c9c bb3d 0bda 85bc 71fa af3d 8018 cebd
00000010: 4814 f0bc e90d dbba fe55 003b 1a7c babd
00000020: 7616 003e 3c33 debd dcc5 9a3c 0ba1 21be
00000030: e2eb ce3b 8927 e0bd 10ca 53bd 9aec 193d
00000040: 53c6 833d 52f9 ac3c 2291 c3bc 1272 afbc
00000050: a52d 463d 9972 413e edcc babc 4ddb 35bd
00000060: 9d2a 703d 5c5c 043d 5add 07be 0b95 503b
00000070: bdb8 b73d 5f01 9a3d 3dde 5a3d e1dc afbc
0.091607064 -0.016339323 0.0859269 -0.10063267 -0.029306546 -0.001671252 0.0019582505 -0.09105702
0.12508568 -0.10849616 0.018893175 -0.1578409 0.0063147405 -0.10945041 -0.051706374 0.037579156
0.06434312 0.021114979 -0.023872916 -0.021416698 0.048383374 0.18891372 -0.022802794 -0.044398595
0.05863439 0.032314643 -0.13268033 0.0031827118 0.08970783 0.07519793 0.0534346 -0.021467628

module.stream1_stage3.1.weight f4 [32]
00000000: 793d 5c3f d75f b33f 13c6 923f 25c6 9d3f
00000010: b98a 603f 385f 4c3f f2ea a43f 4867 803f
00000020: 747f a63f f2a0 a13f 2182 f83e 5d4e 9d3f
00000030: 27a3 7b3f aad7 ac3f a3a9 da3e 5cb5 633f
00000040: 3684 7d3f c591 443f f226 af3f 3b3e 9c3f
00000050: 1e4f 783f 2de5 a83f f983 db3e 0845 403f
00000060: d528 3a3f 7235 373f 3a7c ed3e cce6 6c3f
00000070: 4159 173f cd76 853f b347 943f 894a 063f
0.860313 1.4013623 1.1466697 1.2326094 0.87711674 0.7983279 1.28842 1.0031519
1.3007646 1.2627242 0.4853678 1.228954 0.98295826 1.3503315 0.42707548 0.8894861
0.9902986 0.76784927 1.368376 1.2206491 0.96995723 1.3194939 0.42874125 0.75105333
0.72718555 0.71565926 0.4638384 0.9253967 0.59120566 1.042688 1.1584381 0.5245748

module.stream1_stage3.1.bias f4 [32]
00000000: 9765 4cbe cae3 843d e030 86be 923b 4d3d
00000010: 0ad7 fdbd fda1 21bd ea71 5c3e 6a93 023e
00000020: 998e 28bc aedc 59bd 558e 463d 0895 aabd
00000030: e216 c3bd 26be 52bd 8d58 bcbd 06b4 e63d
00000040: 7610 54be 7947 443e fb16 903d 2c30 b13c
00000050: c4f0 e83d 5e96 693e 5903 45be 9081 b73d
00000060: 7895 a4be 6ddd 0fbe c743 983b 8789 41be
00000070: ed6f 6e3d 3904 f5be 46e6 4e3d 42f9 ac3c
-0.19960628 0.0648876 -0.26209164 0.05010564 -0.12394531 -0.039461125 0.2152783 0.12751547
-0.010287904 -0.053188972 0.048475582 -0.08329207 -0.09525849 -0.05145087 -0.09196577 0.112648055
-0.20709404 0.1916789 0.07035633 0.021629415 0.113740474 0.22811267 -0.19239558 0.08960259
-0.32145286 -0.14049311 0.0046467516 -0.18900119 0.05821221 -0.47854784 0.050512575 0.02111495

module.stream1_stage3.1.running_mean f4 [32]
00000000: ae18 9e3c 3487 a8bc 1e0e 043d e682 d5bd
00000010: 1825 a2bd f40e debd ffd7 3d3c 5051 a5bd
00000020: 9867 fa3d b45c 01be 3b85 da3d d599 29be
00000030: 79cf acbc 0c82 e4bd 20ca 4f3d a40a 683d
00000040: bc69 ba3c 1072 9a3d 0d1e 24bd f97c ebbc
00000050: 456c 393d 01d2 543e 3177 f13e d8e3 95bb
00000060: 211b 36be 6b9c 4dbe eba5 7b3d bc7c e5bd
00000070: 8427 903e 3d6e 61bc f25c e53c 98da c63e
0.019298878 -0.020572282 0.032240026 -0.104253575 -0.07917231 -0.10842696 0.011587142 -0.0807215
0.1222679 -0.1263302 0.10669943 -0.16562589 -0.021095024 -0.11157617 0.05072987 0.056650773
0.022755496 0.07541287 -0.04006772 -0.028746115 0.04526927 0.20783235 0.47161248 -0.00457428
-0.17783786 -0.200792 0.06143753 -0.11205432 0.28155148 -0.013759193 0.027998421 0.3883865

module.stream1_stage3.1.running_var f4 [32]
00000000: d210 6d3b e7ab a03b e058 053c b1d5 fd3b
00000010: ff48 ac3b 42ee 843c 6989 0e3b dccf 763b
00000020: 73ec 3f3c ee38 383b dfbf 1c3c 7fa5 683b
00000030: 6cc2 833b bc48 773b e6c7 ad3b 71a6 2b3c
00000040: 4494 ae3b f46f d43b 2559 583b 3fa0 713a
00000050: d2d4 d43b d715 503c 26d5 7a3d d62c 763b
00000060: 6ea0 673c 1d0e a83c 01ac 663c 9670 003c
00000070: fade 7f3c 6360 173c 5ddb 5c3b 916a 4a3d
0.0036173356 0.004903305 0.008138865 0.0077464213 0.0052577252 0.016226891 0.0021749383 0.0037660515
0.011714089 0.0028110105 0.00956723 0.0035499034 0.0040209796 0.0037732562 0.0053033708 0.010476694
0.0053277332 0.0064830724 0.0033012119 0.0009217299 0.0064950967 0.0127005195 0.06123843 0.0037563345
0.0141373705 0.020514542 0.014079095 0.007839343 0.015617127 0.009239289 0.0033700087 0.049418036

module.stream1_stage2.0.weight f4 [32, 32, 3, 3]
00000000: bef2 ebbd ec74 28bd 449f 37be 383f fa3d
00000010: 0626 ecbc 2165 f43c a285 94bc b217 fb3d
00000020: 6b83 493e de91 ac3b 43f9 743e 15b4 48be
00000030: 5926 983d b556 0c3e adae b3be c369 903d
00000040: 99b5 78bc ef11 dabd d614 903d 7ccc 353d
00000050: 3216 42be 95c0 993d c5e0 e93d 4ec4 1a3c
00000060: 2eed 833d 7b47 a53d 6591 1f3e 4e22 4dbe
00000070: d5b7 a83c 97f5 86be d509 1c3d 42d0 b03d
00000080: 1e55 9dbd e370 9abd 62cb c4bd 546e e8bd
00000090: b6f7 81be c5ba 9c3c 7f93 7b3d 41d8 78be
000000a0: 9b7c f93c 166e 403e 85f7 e9bd 8cfe 093e
000000b0: 865d c4bd 0421 e3bd 5e1e 93bc 6431 133d
000000c0: 4d92 cbbd b915 0f3d f90a 8cbd bafb b63d
000000d0: 689a 2abd ea93 ba3c 386b 2a3e e8eb b03d
000000e0: 6d97 71be 3fe3 31be 0521 513d 5bf5 3fbd
000000f0: f435 e6bd 9960 13be e7b4 d83d 034e ab3d
00000100: 59f4 733e c784 a03d 1111 a1bc 655f b7bc
00000110: d389 a13d 03c5 e0bd 26e1 69be 72f3 d93d
00000120: 7756 423e 6540 6dbd 7917 0cbe 9fb9 8a3d
00000130: 2dd5 4e3d 93d3 023e 3e8c 073e 39f8 b03e
00000140: 42fb b8bc 1c49 3dbe 4ab4 1fbd 61ca 9abd
00000150: 9586 89bd 3d2f 7ebd df08 aa3c 5bc9 93bd
00000160: 8250 d53b 5717 453e 8fe5 2f3e 7a19 ee3c
00000170: 9e55 323c 0d08 8dbd d638 843d a6a7 b13d
00000180: b16d 3e3e 72ea 95bd 412e 75bd 8e43 a7bd
00000190: 356c b03d a779 f2bd 6ace 02bd 3d9a febc
000001a0: f2a9 33bd 31e9 28bd 03d7 84bd dbd7 8c3d
000001b0: dd9a 783d a2aa 22bd c7eb 473c 1e75 b83d
000001c0: 34f6 983d 16c6 92bd 1714 233d 14a2 fabc
000001d0: 9a84 893c e158 5b3e 279f c1bd 20f6 0c3e
000001e0: bc12 9e3d a227 a83d 63ab f3bd 70de ebbd
000001f0: b0bd 88be 8640 ef3d f987 bd3c 9c5f dbbd
00000200: 3106 23bc af48 c3bd e796 e23c a786 033e
00000210: 6d09 c73d 5e4c 1ebe db57 8c3d 14e9 08be
00000220: ba19 afbd cc96 56bd 7152 283d a0bb 1f3d
00000230: 71e6 afbc 0855 613e 412d cc3c 6cde a3bd
00000240: 7303 a3bc d010 64bd a859 1abd c1f6 47bd
00000250: 2bec dc3b a34f 243e fa66 bfbd da38 e1bc
00000260: 5433 043e 5774 1b3e c06f 0a3d 1b6a e1bd
00000270: a8e8 9b3d 4313 36bd c3a4 b6bc ad43 30be
00000280: be0c 1abe 592a 09be 006c 51bd 96fa d2bd
00000290: f874 22bc 7dab fd3d c3b4 a2bd 2d4e a4be
000002a0: fba1 633d b82b 9c3d b562 703d 9088 ce3b
000002b0: f5d7 03be f155 cabd 2406 10be e255 9d3d
000002c0: f97f 18bd f4e2 edbc 091f 983d f9db 0f3e
000002d0: a833 c93d d5f4 5ebd 8857 2dbe 3d4b 25bd
000002e0: 20f2 2abe 7a54 79bd 3bb4 ee3d 3995 81be
000002f0: 28d1 cd3d 2e08 8d3b 9347 123d f715 df3c
00000300: 4cf4 203e 18fe 393e 0530 67be ea17 02be
00000310: 9971 82bd d18a 02bd f4de 893d 0462 14bd
00000320: 5dbc cabd 3050 14bd b81e 933b d8b1 303e
00000330: 930b 6bbd 317d d1bd 3462 4abd 91f6 b83c
00000340: d368 013e 89b1 9b3d e2fc a9bd f2de 2b3d
00000350: 0acd e73d ee48 70bd c746 633d 71d0 9cbd
00000360: 350c b8bd 9276 1abd 9b59 33be c874 50bd
00000370: a22d f23c 5948 a33d 733b 783d 2711 db3d
00000380: 741e 1d3e c993 0bbe 935b ebbc 0554 abbc
00000390: 8e3d 9ebd 21fb d9bc 1a23 273e 5213 1bbd
000003a0: 48e8 c53d 5e83 123e b36a e63c cee1 cb3d
000003b0: 1f83 9a3d 2a87 0c3e 089f 793c 4261 7bbd
000003c0: cb9d 30be 906e e0bd 9b84 373d 3f03 4b3e
000003d0: ab59 c63d b887 02bc 2779 38bd e4fd 4f3d
000003e0: f655 4cbe be20 5abe 0d6c 6e3d c254 483d
000003f0: 0c75 00bd 5f31 3c3e 4b55 0a3d f655 9dbd
-0.11520909 -0.04112713 -0.17931849 0.12219089 -0.028826725 0.029833378 -0.018130127 0.12260379
0.19679038 0.005266412 0.23923211 -0.19599946 0.07429189 0.13704951 -0.35094205 0.070514224
-0.015180015 -0.10647952 0.07035224 0.044384465 -0.1895378 0.07507435 0.114198245 0.009446217
0.06441723 0.080702744 0.15582807 -0.20032617 0.02059547 -0.26359245 0.038095314 0.08633472
-0.076822504 -0.07541063 -0.09609105 -0.113491684 -0.253843 0.019132027 0.06141996 -0.24301244
0.030454924 0.18791994 -0.11424164 0.13476008 -0.09588151 -0.110902816 -0.017958816 0.035935774
-0.09940014 0.034932826 -0.0683803 0.08934732 -0.04165116 0.022775609 0.16642463 0.086387455
-0.2359292 -0.17371844 0.05105688 -0.04686485 -0.112407595 -0.14392318 0.105813794 0.08364489
0.2382368 0.07837825 -0.019661458 -0.022384355 0.07887616 -0.10975077 -0.22839794 0.10642137
0.18978296 -0.05792274 -0.13680829 0.06773686 0.05049627 0.12776022 0.13237092 0.3456438
-0.022580747 -0.1848492 -0.038990296 -0.07558132 -0.067151226 -0.06205677 0.020756183 -0.0721614
0.0065098414 0.19247185 0.17177413 0.029064883 0.010884671 -0.06886301 0.06456153 0.086745545
0.18596531 -0.073201075 -0.059858564 -0.08167182 0.08614389 -0.118396096 -0.031935133 -0.031079406
-0.043863244 -0.041238014 -0.06486323 0.06877109 0.060694564 -0.03971351 0.01220221 0.09006713
0.074688345 -0.07166688 0.03981408 -0.030594863 0.016786862 0.21420623 -0.09454184 0.13765764
0.07718417 0.08210684 -0.11897924 -0.11517036 -0.2670722 0.11682229 0.023136126 -0.107115954
-0.009950207 -0.09535348 0.027659846 0.12844335 0.09718595 -0.1545882 0.068526946 -0.13370162
-0.08549829 -0.052389905 0.041094247 0.038997293 -0.021472188 0.22005093 0.024923922 -0.08001408
-0.019899106 -0.055680096 -0.03768316 -0.048819307 0.0067420206 0.16046004 -0.09345813 -0.02749293
0.12910205 0.15181099 0.03379798 -0.11006566 0.07612735 -0.044451963 -0.022295361 -0.17213316
-0.15043923 -0.1339506 -0.051128387 -0.10301702 -0.009915583 0.123862244 -0.07944634 -0.32090893
0.0555744 0.07625526 0.058687884 0.0063029006 -0.1287535 -0.09879673 -0.14064842 0.076823965
-0.03723142 -0.029038884 0.074277945 0.14048757 0.09824306 -0.05443271 -0.16927922 -0.040354956
-0.16693926 -0.06087158 0.1165547 -0.2530916 0.10049659 0.0043039536 0.03571279 0.027232153
0.15718192 0.18163335 -0.22576912 -0.12704435 -0.06369323 -0.031870667 0.06731978 -0.036226287
-0.09899209 -0.036209285 0.004489746 0.17255342 -0.057384085 -0.102289565 -0.04941006 0.02257851
0.12637644 0.076022215 -0.08300187 0.041960664 0.11318405 -0.0586633 0.05548742 -0.076569445
-0.08986703 -0.037710734 -0.1751465 -0.05089262 0.029562775 0.079727836 0.06060357 0.10696631
0.15343648 -0.13630594 -0.02873019 -0.020914087 -0.077265844 -0.026609005 0.16321984 -0.037860222
0.09663445 0.14307925 0.02812705 0.09955178 0.075445406 0.13723436 0.01523567 -0.06137205
-0.17247693 -0.10958588 0.044804197 0.19825457 0.096850716 -0.007966928 -0.045037415 0.05077924
-0.19954666 -0.21301553 0.058208514 0.048908956 -0.031361625 0.18378209 0.033772748 -0.076824114

module.stream1_stage2.0.bias f4 [32]
00000000: 9a78 72bd 1346 323b ade1 983c f273 9cbc
00000010: 1cfc bebd c638 813d 17dc 5abd 85c2 a3bd
00000020: 2459 18be 7076 b4bd 2ac3 873d 3117 0cbd
00000030: 86f5 0d3d 69e5 19bd 7662 eb3c bb58 00be
00000040: 8fff 3dbd f431 ed3b a123 893e 94d5 423c
00000050: d590 b03d 96cb b03d d8c2 ac3c 6681 d9bd
00000060: 2a5b c0bc 467b fab9 138e 58bd 09b6 0cbe
00000070: 3746 e93d c450 953c 889d 4f3c cdc8 1cbc
-0.059197046 0.0027202412 0.018662298 -0.019098256 -0.0932543 0.06309657 -0.05343255 -0.07996086
-0.14877754 -0.08811653 0.066290215 -0.034201805 0.034657978 -0.0375723 0.028733473 -0.12533848
-0.046386298 0.007238621 0.26784995 0.011891741 0.086213745 0.08632581 0.021089002 -0.10620384
-0.02348097 -0.00047775562 -0.052869868 -0.13741316 0.113903455 0.018226989 0.012671836 -0.009569359

module.stream1_stage2.1.weight f4 [32]
00000000: 34ea 863f 1f54 743f cc30 753f 6bec 763f
00000010: 426e 923f cfac 823f ee96 5f3f 3e90 6d3f
00000020: 277e 8a3f ed23 843f 9885 8b3f 6bc4 8a3f
00000030: a316 653f d1c5 793f 49b1 763f 3915 853f
00000040: 7cfc 7e3f cd06 843f d6e9 7e3f 3858 673f
00000050: 53df 853f da3a 8a3f f739 3a3f e660 6c3f
00000060: 460e 8b3f e540 3c3f 75e0 823f a235 723f
00000070: badb 713f a097 843f f93c 803f 351d 943f
1.0540223 0.9544086 0.95777583 0.96454495 1.1439898 1.0208987 0.87339675 0.9279822
1.0819749 1.0323464 1.0900145 1.0841192 0.89487666 0.9756747 0.96364266 1.0397102
0.9960401 1.0314575 0.99575555 0.90368986 1.0458778 1.079921 0.727447 0.92335355
1.0863731 0.7353652 1.0224749 0.9461309 0.944759 1.0358772 1.0018607 1.1571413

module.stream1_stage2.1.bias f4 [32]
00000000: 3b50 9ebd 878b 85be 5080 36bd 21e7 50bd
00000010: 6665 06be c168 15be 4924 61bd 0f03 bcbd
00000020: 8201 cb3b 0380 78bd 36ea b8bd aa8a 90bd
00000030: 2d54 70bd 7ee1 bdbd 592e a9bd 9f0a b3bd
00000040: 4927 09be 0cdd a1bc 469d 42be 5690 34be
00000050: 9a7a aebd 0f60 54be b3c8 66bd e440 93be
00000060: eba7 acbc f792 493e bfc4 47bd b440 63be
00000070: 2cb7 763d 4217 d0bc 304c 0fbe bf43 06be
-0.077301465 -0.26083013 -0.044555962 -0.05100167 -0.13124618 -0.14590742 -0.054966245 -0.09180271
0.006195248 -0.060668956 -0.09029047 -0.07057698 -0.058674026 -0.09271525 -0.08260793 -0.0874226
-0.13393892 -0.019758724 -0.19005308 -0.17633185 -0.08519478 -0.20739768 -0.056343745 -0.28760445
-0.021076163 0.19684969 -0.048771616 -0.22192651 0.06023328 -0.025401715 -0.13993907 -0.1311178

module.stream1_stage2.1.running_mean f4 [32]
00000000: eb5a 2cbf afe1 b43e c095 36bf 1ef7 023e
00000010: 7783 cbbe bde4 6fbf f5ba 26bf 6576 a9be
00000020: 4db0 3ebe 81a7 87bf b8e6 7bbf 8fb4 c8be
00000030: 6555 38bd 9da9 2bbf f51a 81be 3466 fbbe
00000040: ce2b 59bf 9efb 15bf d5c8 3cbf 0a08 a83e
00000050: bdf5 f2be c561 b13e 29bd 20bf 6d9e 613d
00000060: f396 a3bf 3857 2a3f 8e2c 99bf d201 cfbd
00000070: 0be7 7abf d9f1 96be ec1f 8fbe bf15 2cbe
-0.6732623 0.35328433 -0.7132225 0.1278958 -0.39748737 -0.937084 -0.65129024 -0.3309814
-0.18621941 -1.0597993 -0.98398924 -0.39200255 -0.045003314 -0.67055684 -0.2521588 -0.49101412
-0.84832466 -0.5858706 -0.73743945 0.32818633 -0.47453108 0.34644905 -0.62788635 0.055082727
-1.2780441 0.66539335 -1.1966722 -0.10107769 -0.98008794 -0.2948139 -0.27954042 -0.1680517

module.stream1_stage2.1.running_var f4 [32]
00000000: 357e b63f f960 d13f bfd9 f53f 5d9f 0540
00000010: 7039 723f 58d4 cc3f debd b23f 57a7 a33f
00000020: f810 cd3f 7052 1740 6ec2 2f40 3474 0340
00000030: 7d17 ee3f 7d11 813f 327b c13f 7bfe a03f
00000040: 3210 e23f 4fd3 b43f 47f2 e83f dc90 8e3f
00000050: 1061 8d3f 32df 943f 8832 a13f 54f6 c03f
00000060: 52b3 0c40 8878 9b3f 9ec2 0b40 75bd 9a3f
00000070: 79a8 a53f f85d 9b3f 967e bf3f 7f89 0940
1.4257265 1.6357719 1.9207076 2.0878518 0.9461889 1.6002302 1.3964193 1.2785443
1.6020803 2.3644066 2.746242 2.0539675 1.8600918 1.0083462 1.5115721 1.2577661
1.7661192 1.4126986 1.8198937 1.1137958 1.1045246 1.1630614 1.2593546 1.5075173
2.1984448 1.2146158 2.1837535 1.2089068 1.2942039 1.2138052 1.4960506 2.149017

module.stream1_stage1.0.weight f4 [32, 32, 3, 3]
00000000: 781d c13d 4ab2 713e 5c05 f43d 71db 86bd
00000010: 1efa 78bd 616b 513d d334 9bbc d0e0 9abd
00000020: e6e5 153e 866f 02be bbfb 37bd d6d6 aabd
00000030: 7925 e43d 1184 37bd f1c7 a53c df2b 753e
00000040: d502 57be 85e7 1d3b c02c 153e 23ab aa3b
00000050: d82e dcbd 9c08 b43d 55fd 4f3d fdec 17be
00000060: 7c81 d2bd 4561 0d3e 0a98 5abe 2e90 6f3d
00000070: e9bb e13d 3f4b c13c 1f05 35be 34aa 0a3d
00000080: 777a bebd fef7 a7bd de54 3bbe 2cde a53d
00000090: 7464 1b3d 5dc7 35bc 03b6 843b f6c6 80bc
000000a0: 428c f6bd bb1a 9a3d 8859 c43d e9a5 b0bd
000000b0: f78e 123e 58f4 bf3d 9ade 8cbd da9f 2fbc
000000c0: 6121 6a3d 980b 233d 2f6f 6a3c abce a1bd
000000d0: 85e7 f7bd a068 cfbd b9f8 1c3d c597 323d
000000e0: f651 173d b112 74bd bc60 b1bd d015 853d
000000f0: c40a edba 43d7 b5bd 5a93 3d3d dc2e 893d
00000100: 1120 d6bc 96ba 4bbb f3bf 1abe 12f1 303b
00000110: 1774 bebd de67 aabd 1e11 b3bc ad72 083e
00000120: 5fe9 a2bd bc8e 46bd ca55 5abe 0ff7 08bd
00000130: 9553 a7bb 63f1 a1bb 3091 4f3e 4d56 2e3e
00000140: 01cf 3abe d4e6 633d 6f89 f4bc ad07 f1bc
00000150: c77a c8bd e2ba ad3c 01c9 433b 1272 7cbd
00000160: 53f2 d1bd 73e7 853d 8219 503e c7fe 5f3d
00000170: 3718 12be 19cf e93d c497 de3d ca8a e93c
00000180: bb82 47be 751a 013e 1869 e5bc 5b03 e03d
00000190: 55cc 373d 8400 f0bb 519e c73d 9299 64be
000001a0: d6cc 6cbd 20c0 46be 5f03 73be 905c f33d
000001b0: c8dd 8a3d 1f73 2b3d 6b65 4b3e adeb 053d
000001c0: 2ac4 833c b963 723d 669d d5bd 9303 5ebe
000001d0: be75 7dbd f1ba 86bd 8025 a5bc 4183 4e3d
000001e0: ed9d 83bd 5fac 34be 0016 cfbd 977c 0f3e
000001f0: 89d8 a1bd d87c db3d 3898 753d b832 44bd
00000200: c273 183d 1c31 d23d f111 d0bd 17d8 e6bd
00000210: b807 24be cc28 163e 016a b63d 193e 1b3d
00000220: 7be8 bf3d 1fb3 6abd 9264 693d 48ab ac3b
00000230: 371a 8a3e c644 90bd 41b7 94be 8fb4 ab3d
00000240: 52ff 62bd 77b8 81bd bf55 2abe cfd9 1b3e
00000250: 904e b23d 0313 4b3e 6133 c0bd f866 64be
00000260: 9e7f 99bd 2f6e ee3d 51b4 19bb 9fcf 123e
00000270: 66ca 2c3e 1eac 7e3d 3a96 553d 3ae2 a0bd
00000280: 1982 c8bd 0300 233e dc02 00bd 7400 c5bd
00000290: 6597 233d 62c4 23bc 8f04 2b3d d25e 99bd
000002a0: 06ad c8bd 7ecc 303d 079a 923d c01b 24be
000002b0: e1aa febd f865 373d d719 dc3d 61cc 90bd
000002c0: 3ffe 723e 690e 1a3d cac1 143d 7842 35be
000002d0: 6bc6 5c3d 5208 ec3c d92e 05be 2dff a8bd
000002e0: 3ae6 3abe 6de1 10bd 3641 273e db8e 183e
000002f0: b499 10be e1c9 1cbc 55ba 9cbd 7962 ba3d
00000300: 6feb 143d bbdf 683d c7d1 7f3d e2c0 d4bc
00000310: 8ed1 ccbc 2fea 29bd a5b4 12be e756 1d3e
00000320: 9f0e c8bc 7101 d93d 99ab a83d 2ee3 063d
00000330: 7f63 9fbd 4ebf b9bd 427e 11bc db71 1cbd
00000340: f19d b5bc 7637 d5bd e4cb bdbc f497 dbbc
00000350: e0f8 e23d 6516 a03c 3097 023e ac7a 07bd
00000360: 7a69 443e 7e79 5cbb 017d 99bd 5269 903d
00000370: 0d91 2b3d 90e1 c4bd 4751 83be dfa0 03be
00000380: 8414 e83d e972 703d 5ceb 2a3e 7128 9abc
00000390: 43f7 35be db44 603c e4b1 29bd 3850 473e
000003a0: 44ef 07bd 4631 99bc 7c8f a83d 2358 403c
000003b0: 1a9b 16bc f4cf cb3d 8014 73bd 000f 8e3e
000003c0: ef25 a0bd a41d 80be 1d0c 993d d2a9 2e3e
000003d0: 4855 42bd 43bc 33be 71cc a6bd e05b 403d
000003e0: 7c9e 033d 58be 65be 307e 97bd 2532 0fbe
000003f0: 474f bd3c 6d96 5c3d 298c 4fbb e49d 50be
0.09429449 0.23603168 0.11915085 -0.06584824 -0.060785405 0.051127795 -0.018946087 -0.07562411
0.1463848 -0.12737855 -0.044917803 -0.08341758 0.1113996 -0.044803683 0.020236941 0.23942517
-0.20997174 0.0024094295 0.14567852 0.0052083894 -0.10751122 0.087907046 0.050778706 -0.14836498
-0.102786034 0.13806637 -0.21347061 0.05848711 0.11022169 0.02359545 -0.17677735 0.033853725
-0.09300702 -0.08201598 -0.18294093 0.080990165 0.037937596 -0.011094895 0.004050018 -0.015719872
-0.12038471 0.0752463 0.09587389 -0.08625395 0.1431235 0.09372777 -0.068783954 -0.010719264
0.05716074 0.03980598 0.014308735 -0.07900747 -0.12104706 -0.101273775 0.038323138 0.04360177
0.0369434 -0.059588138 -0.08661029 0.06498301 -0.0018084873 -0.088789485 0.046283104 0.06698391
-0.026138337 -0.0031086556 -0.15112285 0.0026999158 -0.09299486 -0.08320592 -0.021858748 0.13324995
-0.07954668 -0.048475966 -0.21321788 -0.03343874 -0.0051063993 -0.0049421056 0.20270228 0.17025109
-0.18243028 0.055640057 -0.02985069 -0.029422605 -0.09789043 0.021207277 0.0029874446 -0.061632223
-0.10251298 0.06538286 0.2032223 0.054686334 -0.1426705 0.11416454 0.10868791 0.028508563
-0.19483463 0.12607749 -0.028004214 0.1093814 0.0448726 -0.00732428 0.09746993 -0.22324207
-0.057812534 -0.19409227 -0.23731755 0.11882889 0.06780583 0.041857835 0.19862907 0.03269546
0.01608475 0.059177134 -0.10430412 -0.21681051 -0.061879866 -0.06578625 -0.020159483 0.050418142
-0.06426606 -0.1764388 -0.10111618 0.14012371 -0.07902629 0.107171714 0.05995962 -0.04789993
0.03721977 0.10263273 -0.10159672 -0.112716846 -0.1601857 0.14664 0.089069374 0.037901018
0.09370514 -0.05729973 0.056980677 0.0052694418 0.26973125 -0.070443675 -0.29046062 0.08384048
-0.055419274 -0.06334012 -0.16634272 0.15219806 0.08706391 0.19831471 -0.093848 -0.22304904
-0.07495044 0.116421096 -0.0023453424 0.14337014 0.16874084 0.062175862 0.05214522 -0.07855649
-0.09790439 0.15917973 -0.031252727 -0.09619227 0.039939303 -0.009995552 0.041752394 -0.07488789
-0.097986266 0.04316377 0.07158285 -0.16026211 -0.12434936 0.04477498 0.10747116 -0.07070232
0.237298 0.0376114 0.036317624 -0.17701137 0.053900164 0.028812561 -0.13006152 -0.08251796
-0.18251887 -0.035371233 0.1633347 0.14898245 -0.14121133 -0.009569616 -0.076527275 0.091008134
0.03635734 0.05685399 0.06245592 -0.02597088 -0.025002267 -0.0414831 -0.14326723 0.15365182
-0.024421034 0.10595978 0.08235855 0.0329315 -0.07782649 -0.090696916 -0.0088802 -0.03819452
-0.022170039 -0.10410969 -0.023168512 -0.026805855 0.110826254 0.019541929 0.12752986 -0.033075973
0.19180861 -0.003364175 -0.07494546 0.07051338 0.041886378 -0.09613335 -0.25647947 -0.12854336
0.11332038 0.058703337 0.16691345 -0.018818112 -0.17770104 0.013688291 -0.041429415 0.19464195
-0.033187166 -0.018700253 0.082304925 0.011739763 -0.0091922525 0.09951773 -0.059345722 0.2774582
-0.07819735 -0.25022614 0.074730136 0.17056969 -0.04744461 -0.17552285 -0.08144463 0.04696262
0.032133564 -0.22435892 -0.07397115 -0.13983972 0.023109091 0.053854395 -0.0031669235 -0.2037273

module.stream1_stage1.0.bias f4 [32]
00000000: 3895 da3d 1910 bbbd 7191 ad3b 18e8 ce3d
00000010: 826e 09be 8ec5 8dbc d4fd b33c 6357 b43d
00000020: 90dc 163d 817f 80bc f030 9cbd 5b84 093e
00000030: e652 2abd 2a4d 74bd 5fa9 01bd 5f21 9abd
00000040: 3af3 2f3c 2cf3 913d ce43 453d 11c8 81bc
00000050: 8601 e53d 214e 5bbd 65dc e3bc 4422 00be
00000060: fb5e 823d 6ca3 013d ced5 2ebd f69d a4bc
00000070: f976 c3bd 9972 61bd 519a 04be 9883 c8bc
0.106729925 -0.0913393 0.005296879 0.10102862 -0.13421062 -0.017306115 0.02197162 0.0880573
0.03683144 -0.015685799 -0.076265216 0.13429396 -0.041582964 -0.059643902 -0.031655665 -0.07525896
0.010739142 0.071264595 0.048160367 -0.01584247 0.11181931 -0.053541306 -0.027815053 -0.12513071
0.06365772 0.031649992 -0.04268437 -0.020094853 -0.095441766 -0.05504093 -0.12949492 -0.024476811

module.stream1_stage1.1.weight f4 [32]
00000000: 0560 893f cb8e 773f 4ed4 743f b8aa 793f
00000010: 6936 6a3f e589 7d3f 9ad7 7a3f 279e 773f
00000020: a416 843f cef4 813f 13b8 6c3f a9ab 7b3f
00000030: 233f 803f f1b7 793f 14fa 853f 8f89 813f
00000040: c712 883f 4aa5 863f fda7 813f f235 813f
00000050: 08f9 873f cc54 853f 5c83 883f cd1f 743f
00000060: c348 873f 145c 833f 60f6 803f db93 7a3f
00000070: c2d1 803f f67a 7c3f 0fd4 7b3f 0d27 7d3f
1.0732428 0.9670226 0.9563645 0.9752612 0.91489273 0.99038535 0.9798523 0.96725696
1.0319409 1.0152833 0.92468375 0.9830881 1.0019268 0.975463 1.0466943 1.0120105
1.063073 1.0519192 1.0129391 1.0094588 1.0622873 1.0416503 1.0665088 0.95361024
1.056908 1.0262475 1.0075188 0.9788186 1.0064013 0.98625124 0.9837045 0.9888771

module.stream1_stage1.1.bias f4 [32]
00000000: b696 023c ff0e a4bd 7baa 85bd 1209 8ebd
00000010: f85b dcbb 723c 863c f984 21bd 7365 e2bd
00000020: ae34 f13c 8f96 92bd e711 1dbe 88ad 2f3d
00000030: 1d9b 1bbe 3a3a 7ebd 19d3 223d efd0 1fbd
00000040: 1da9 44be 0b6a f4bd 0aaa fcbc 45f6 ea3b
00000050: da54 41bd b360 a5bd 3262 babd 9456 9b3d
00000060: 0e99 f1bd 6379 15bd 611c ccbd 6ec4 4dbe
00000070: 90f2 55be d3ca f93c 1443 9cbc cb11 b53a
0.007970503 -0.08010673 -0.06526657 -0.06935324 -0.0067248307 0.016386244 -0.039433453 -0.11054506
0.029444065 -0.07157623 -0.1533886 0.0428901 -0.1519589 -0.062067248 0.0397521 -0.039017614
-0.19205137 -0.119342886 -0.0308428 0.007170471 -0.04720006 -0.080750845 -0.091007605 0.07584873
-0.11796771 -0.036492717 -0.0996635 -0.20094463 -0.20893312 0.030492222 -0.019074954 0.0013814507

module.stream1_stage1.1.running_mean f4 [32]
00000000: 38ac a3be 9ae7 ccbe d354 e0be a0e9 08bf
00000010: 2700 24bf 8633 a9be 474c 00bf b844 27bf
00000020: ff2d 02bf da5a aabe ddfd 99bd 2b9e f53c
00000030: 08b8 39bf 0a00 0ebf b0c8 febc d6e9 57bf
00000040: ad96 07be 0c8d dbbe 9474 bdbe fcdf b0be
00000050: 8201 febe 22ed 99be 202b babe ab4b 83be
00000060: fe61 41bf 5e6c 09be 24fe 19bf d086 2a3e
00000070: 9351 6c3e 5f81 40bf 21cd 04bf 58b2 0dbf
-0.3196733 -0.40020448 -0.43814716 -0.53481483 -0.6406273 -0.33047122 -0.5011639 -0.6533923
-0.50851434 -0.3327244 -0.07519124 0.029982647 -0.72546434 -0.5546881 -0.031101555 -0.8434118
-0.13241072 -0.42881048 -0.37003005 -0.34545887 -0.49610525 -0.3006373 -0.36361027 -0.25643668
-0.7554015 -0.13420245 -0.6015341 0.1665299 0.23077993 -0.75197405 -0.518755 -0.55350256

module.stream1_stage1.1.running_var f4 [32]
00000000: 6e43 1f3f f0bd a33e 52cd fc3e 94f4 cd3e
00000010: cf55 d93e cc2c 073f c5d0 fb3e 6a84 ee3e
00000020: 4d1d b43e bd25 043f ad52 e63e eeef 023f
00000030: c0a4 1c3f 4620 c03e 658c dd3e 4049 163f
00000040: c8ec e43e 32ad bd3e ebe4 0d3f 839b df3e
00000050: 2f1f 293f 9377 133f 45dd 0c3f f8a0 9c3e
00000060: e0ce 043f b48d 193f bcb6 eb3e 0820 d83e
00000070: 3f97 f83e a57d 3e3f d2cb e23e d2be e33e
0.62212265 0.31980848 0.49375397 0.4022566 0.4244828 0.5280273 0.49182716 0.465854
0.35178605 0.51620084 0.44984952 0.51147354 0.6118889 0.37524623 0.43271175 0.5870552
0.447119 0.370462 0.55427426 0.43673334 0.6606321 0.5760433 0.5502513 0.3059156
0.51878166 0.59981847 0.46037853 0.42211938 0.48552892 0.7441047 0.44296128 0.44481522

module.stream1_stage1.4.weight f4 [32, 32, 3, 3]
00000000: 7da3 babd b246 8a3c ce49 043e 21ee 0c3d
00000010: c8c0 59be 8ace cfbd 4a16 823e bf4f 19be
00000020: 9732 3ebe 3b90 9c3b 24df a73d e027 3abe
00000030: 893d 063d 149f 10be eca5 a83d 9fb6 aebd
00000040: 0c27 84bb f802 4c3d 7917 22bd 1419 b33d
00000050: eb2b abbd afca 30be a65d 323e 0dcd 0b3d
00000060: 4ec7 163e dafc fcbd c518 0fbe 9571 8fbd
00000070: 50fb a2bd 32b3 4ebe 172d ffbd 35f8 7a3e
00000080: 99e6 fe3d 9d0e ca3d caa3 643d 45cf 1d3e
00000090: 87b3 463c 4ccc 123d a6f8 40be 179b 0c3d
000000a0: cb9d 7c3e 218d 79bd a7a1 263e 752b 0abe
000000b0: 6b26 68be e2f9 fb3c 4adc 91be caa9 34bb
000000c0: 2445 e2bd 757d 66bc 5f7f 12bd 58f5 0cbb
000000d0: 8865 37bd 4831 0ebe f4a0 b8bd 8da1 23be
000000e0: 6323 03be d548 fb3c fbab 123d 32b3 52be
000000f0: 8283 2f3e 8922 d6bd fd7d 11be 2f03 e7bd
00000100: c252 0fbd 97c1 573d 1671 473e e2db 863d
00000110: 8c4b f93c cc2f dabc 825c a23d 98fc 9e3d
00000120: 93cd 703c 25a8 03be 0b5f ec3d 72a1 253e
00000130: c96d 9a3d f034 2b3c fe4b 13be a958 c8bd
00000140: fe4e ee3b b2c9 83bd c629 e2bc 6942 1abd
00000150: 7ea6 88bc 2538 8c3c 37d8 f8bb 34d7 963d
00000160: ca0b 5fbc 291f 23be 1767 abbc 0107 223e
00000170: 12b2 2cbe e33e 3f3c b822 223d 8bd7 203e
00000180: a208 adbd 5591 5d3c 730b a3bd 95c1 7b3d
00000190: 2218 a0bd bdfd 70be efc0 ec3d 0fd0 293e
000001a0: 7f1c 8f3d 32b9 2e3d bb56 4dbc eef7 223d
000001b0: 8e4f 4a3d 6af5 c83c cdbf f1bc ce74 113d
000001c0: b665 b9bd 0cbb 7ebd be56 29bc 5b78 a6bd
000001d0: 89be dc3d ff5a 063e 983d 8a3d 6376 263e
000001e0: 4bc5 a03d d423 abbc b761 213e 762c 063e
000001f0: a5f5 aebd be13 1a3e e67d 503c 2bf2 933d
00000200: 9709 8b3d 9749 70bd 9202 6b3d 1111 233e
00000210: 7ac2 423e 047e 5d3d 6410 46be a7f0 0fbe
00000220: e464 47be 4ef2 003d d224 213e 7bbb aebd
00000230: 3767 47bd f733 a83d 1793 b83d e521 b8bd
00000240: a15b 733d 1d9d 193d 3c30 983d e22e 8bbd
00000250: c4d3 01be f450 bb3d 596b 6ebe 6cad 503d
00000260: 830d 7ebd 7d81 aebb 83fb 163d 7136 8cbe
00000270: 08ca 553b 4601 44bd 9f05 45be c429 563e
00000280: 746b 0f3e b0fa 9b3d 70f2 b23d a571 883d
00000290: b2e7 193d 117c c43d e6e6 173d 0edf 033e
000002a0: 1539 123e 1d59 113a 93d0 b53d d303 b3bd
000002b0: 3e52 5dbd d3fc 1fbd 5259 953d ef27 32bd
000002c0: 85b6 7dbc 65e4 a6bb 79ac 56bd f5ae 02bc
000002d0: 64a8 e4bd 6a7e d0bd 419e 053e 27f3 743e
000002e0: fd29 8abd fab4 663d 143a 163e 1f34 02be
000002f0: 4207 1cbe 1fda a53d ea3c f6bd 7172 e7bb
00000300: 9b76 35bb e9c1 fbbd aa93 283e 0dec a83d
00000310: 2b7c a8bd 8342 54bc 60b2 4abd 8267 80be
00000320: f5d1 11bc 5ddd 8cbc 7518 5f3d 0a8f 943c
00000330: 0672 05be 5e4d 75be 081a b33d 30e0 80be
00000340: f401 293e 256b 483d a910 e5bb 026d c43d
00000350: 42bc ca3d 148f 8c3d cd43 123e 58da 603d
00000360: 246a 063e b44c 6dbd 4450 873c 833a 0f3e
00000370: bdc1 083e 5431 d13d 53e4 293e 6032 523c
00000380: 5acc 053d 214c 9abc 81b0 b43b d34a f9bc
00000390: 2cd7 373e 425d d13c 7581 0fbe e52e 8cbd
000003a0: c1ab 603e e171 3b3e 8885 9abd c1be 53bd
000003b0: e529 4ebd d194 ec3d ce9f 3ebd 7508 8d3c
000003c0: 786d ad3d f511 12be 00d8 893d 2f43 8d3d
000003d0: 1e2a 78bd 6983 76bd eaa4 d1bd 6a76 21ba
000003e0: 5f23 cc3c 940b babc 8782 14bd 852d 0d3e
000003f0: cd07 e03d 5590 763d 5470 91bd 7678 28be
-0.09113214 0.016879413 0.12918779 0.034406785 -0.21264946 -0.10146816 0.2540763 -0.14971827
-0.18573986 0.004777936 0.081968576 -0.18179274 0.03277353 -0.14123183 0.08234772 -0.08530926
-0.004032975 0.04980752 -0.039573167 0.08745018 -0.08357986 -0.17264818 0.17418537 0.0341311
0.14724466 -0.12352915 -0.13974293 -0.07004086 -0.0795809 -0.20185545 -0.12459772 0.24508746
0.12446327 0.098660685 0.055820264 0.15411098 0.012127764 0.035839364 -0.18844852 0.034327593
0.24669568 -0.060925607 0.16272603 -0.1349314 -0.22670905 0.030758802 -0.2848838 -0.0027567022
-0.11048344 -0.014067997 -0.035766 -0.002150854 -0.044774562 -0.13885987 -0.09015074 -0.15979595
-0.12806468 0.030674377 0.035808545 -0.2057617 0.1714001 -0.10455806 -0.14208217 -0.11279904
-0.034991033 0.052674856 0.19476733 0.06584908 0.030431531 -0.02663412 0.07927801 0.07763022
0.01469745 -0.12857111 0.115415655 0.16174868 0.07540471 0.010449633 -0.14384457 -0.097825356
0.0072726 -0.06434955 -0.02760781 -0.03766099 -0.016680952 0.017116616 -0.007594134 0.073652655
-0.013613651 -0.15929855 -0.02092318 0.15822984 -0.16864803 0.011672708 0.03958389 0.15707223
-0.08448912 0.013523419 -0.07961168 0.06146391 -0.07817103 -0.23534293 0.11560237 0.16583274
0.06987857 0.042657085 -0.012532885 0.039787225 0.049392276 0.024531085 -0.029510403 0.035511784
-0.09052603 -0.0621901 -0.010335622 -0.08128425 0.10778529 0.1312065 0.06750029 0.16256098
0.07850131 -0.020891108 0.15759932 0.13102898 -0.08542947 0.15046594 0.012725329 0.07223924
0.067889385 -0.05866393 0.057375498 0.15924479 0.190195 0.054075256 -0.1934219 -0.14056645
-0.1947208 0.03148108 0.15736702 -0.08531853 -0.048682418 0.082130365 0.0901243 -0.0899084
0.059413556 0.03750335 0.07431075 -0.067960516 -0.12678438 0.091463 -0.23283137 0.050946638
-0.062024605 -0.005325495 0.036860954 -0.27385285 0.003262164 -0.047852777 -0.19240426 0.2091437
0.14005834 0.07616174 0.087376475 0.06662301 0.037574477 0.09593976 0.037085436 0.12878057
0.14279588 0.000554459 0.08877673 -0.08740964 -0.05403351 -0.03905947 0.07292427 -0.043495115
-0.015485411 -0.0050931447 -0.052410576 -0.007976283 -0.111649305 -0.101803616 0.1304865 0.2392088
-0.0674629 0.056324936 0.14670593 -0.12715195 -0.15237144 0.08098244 -0.12023337 -0.007063203
-0.0027689103 -0.12292845 0.1646258 0.08248148 -0.08226808 -0.012955311 -0.049486518 -0.2507897
-0.008900155 -0.017195398 0.054466683 0.018134613 -0.13031778 -0.23955294 0.087451994 -0.2517104
0.16504651 0.048930306 -0.0069905114 0.09591104 0.098991886 0.068632275 0.14283676 0.05489573
0.13126427 -0.057934478 0.016517766 0.13987164 0.13355155 0.10214487 0.16591005 0.012829393
0.032665588 -0.01883513 0.005514205 -0.030431187 0.17953175 0.025557164 -0.14014228 -0.06844882
0.21940519 0.1830516 -0.07545 -0.05169559 -0.050332922 0.11551822 -0.04653912 0.017215947
0.08468145 -0.14264663 0.06730652 0.0689758 -0.06058704 -0.060183916 -0.10236533 -0.00061593077
0.02491921 -0.022710599 -0.036257293 0.13786896 0.10938988 0.06019624 -0.07101503 -0.16452202

module.stream1_stage1.4.bias f4 [32]
00000000: 38c0 82bd c75c 6d3d a724 883d 5b1f d7bd
00000010: db4e 123d 0676 ad3d 950f c9bb 01a3 e0bc
00000020: 6146 a4bd 284b 19be 6475 ab3d 8c27 973d
00000030: 1b72 1c3c 0c5e bd3d 9051 a6bd b4af bf3b
00000040: 7ce7 afbc e06b 2ebd 739f a8bd 28e2 943d
00000050: 593f 273c f53a 823d ce8e 19be 8e6d b03d
00000060: 081c 153c 2d40 7c3d d91f ae3d 8330 653b
00000070: 4c7b 7eba 1e08 ec3d a16e 643d 14eb 893c
-0.06384319 0.057949807 0.06647616 -0.105040275 0.035719734 0.08469777 -0.0061358907 -0.027421476
-0.08021236 -0.14970076 0.08372 0.0738059 0.009548689 0.09246454 -0.081210256 0.005849803
-0.021472685 -0.042583346 -0.082335375 0.072696984 0.010207974 0.063589014 -0.14995882 0.08614646
0.009100921 0.06158464 0.08502168 0.0034971542 -0.0009707704 0.11524986 0.055769566 0.016835727

module.stream1_stage1.5.weight f4 [32]
00000000: 171c 743f 6918 4d3f 096e 463f 9797 843f
00000010: 6a0e 613f aa63 6c3f de87 383f 5e19 623f
00000020: 2a94 5c3f b8fb 4e3f b63d 603f 1252 773f
00000030: a0bb 543f 72bd 513f 1453 493f 2839 703f
00000040: c2a2 823f 200c 643f da8c 723f 0e91 5f3f
00000050: c7f2 603f 0e92 4b3f cee5 5f3f efa0 4f3f
00000060: 9c5b 4b3f 0c1f 3b3f a039 503f c500 493f
00000070: 0591 413f 4995 4b3f 99a0 5a3f 1e63 553f
0.9535536 0.8011537 0.7751165 1.0358762 0.8791262 0.92339575 0.72082317 0.8831996
0.8616358 0.8085284 0.87594163 0.96609604 0.83098793 0.81929696 0.7864239 0.93837214
1.020592 0.89081 0.9474617 0.8733071 0.8787045 0.79519737 0.8746003 0.8110494
0.7943666 0.7309425 0.8133793 0.785168 0.7561191 0.79524666 0.854013 0.83354366

module.stream1_stage1.5.bias f4 [32]
00000000: 872b 41bd a662 d9bd 1afa 55bd fbfd 1fbb
00000010: 68b9 90bd bc81 61bc 8f4c b0bd 27b2 1bbe
00000020: 9542 fbbd 42e1 6fbd c9f8 0abe d8a6 a6bd
00000030: 1d46 02be 1eb8 afbd 7af6 a23c b090 18be
00000040: c6ea d6bd 2603 c9bd 3df7 f1bd 0cdd b2bd
00000050: 8a15 83bd 6420 bbbc 7893 bebd 5d2a 81bd
00000060: 326d a5bd 7ce9 ecbc 3792 a3bd 9053 3f3d
00000070: 0408 9cbd 3d85 d5bd e02b 47be 024b 943c
-0.04716065 -0.10614519 -0.05224047 -0.0024412859 -0.070666134 -0.013763841 -0.086083524 -0.15204678
-0.12268559 -0.058564432 -0.13571467 -0.08137292 -0.12722059 -0.085800394 0.01989292 -0.14898944
-0.10493998 -0.09815054 -0.11814735 -0.087335676 -0.064005926 -0.022842593 -0.09305471 -0.06306908
-0.08077468 -0.028919928 -0.07986873 0.04671055 -0.07618716 -0.10425804 -0.1945033 0.018102173

module.stream1_stage1.5.running_mean f4 [32]
00000000: 5e59 403e c1ad fe3e 282b 413f d0f1 2f3e
00000010: 375c 3e3e da36 363e 0513 aabd c367 e5be
00000020: cc4a 333f f5ba eb3e 80f1 38bf a3ca 813e
00000030: 0ae8 0bbf f61d b93e d897 583e a362 42bf
00000040: b851 97be d64a 2cbe 4045 edbe 15a8 d23d
00000050: 9684 03be c48d 09bf cc2a 5cbf eefd 8cbf
00000060: b1bd 54bf 5fa5 afbe 096b 9ebe dc34 4e3e
00000070: 0102 8abe 6ec9 4abf e69e 793d 6840 723e
0.18784091 0.4974194 0.75456476 0.17182088 0.18589865 0.17794362 -0.08304409 -0.44805726
0.70036006 0.46041074 -0.722435 0.25349912 -0.5465094 0.3615567 0.21151674 -0.7593176
-0.29554534 -0.16825423 -0.46341896 0.10285965 -0.12843546 -0.5373194 -0.860028 -1.1014993
-0.83101946 -0.34305856 -0.30941036 0.20137352 -0.26954654 -0.7921361 0.060942553 0.23657382

module.stream1_stage1.5.running_var f4 [32]
00000000: 5720 0b3f 62b2 813e 5617 3a3f f9c9 c63e
00000010: 5e25 c53e 256f d43e ecf8 bd3e 03cb bd3e
00000020: 5975 023f e878 bc3e 5868 f43e e013 e43e
00000030: e53e 013f 643c b33e 6f02 f53e 2b5e 163f
00000040: 6dc8 c83e b8c4 ad3e b80c b63e 3fff f33e
00000050: 3cbe d63e 7bd1 123f 38fd ea3e ad10 e23e
00000060: c0e1 d53e 405e f63e 9818 843e 1f4c d23e
00000070: 6620 c93e 61d7 363f 9ad2 9b3e 8c88 d93e
0.5434622 0.25331408 0.7269186 0.38825968 0.3850507 0.41491047 0.37103975 0.37068948
0.5096031 0.36810994 0.47735858 0.44546413 0.50486594 0.35007012 0.4785342 0.5873744
0.39215413 0.33939147 0.3555658 0.47655675 0.41942012 0.5735089 0.45896316 0.44153348
0.41773796 0.48118782 0.25800014 0.410737 0.3928253 0.7142239 0.30434114 0.4248699

module.stream2_stage3.0.weight f4 [16, 3, 3, 3]
00000000: edd5 bc3c de32 7c3e 7c1f 33bd 2edc 0abe
00000010: 4baf 993d 3c84 f03c b53a bebb 53ac 80be
00000020: 3410 c13c f498 0fbc d872 4c3e fcd4 f53d
00000030: 019e 50be 84d1 a23c 115e eb3d 52e4 503d
00000040: 0f71 24be 75c0 39be b91c 383d d14d dc3d
00000050: c05a eb3c 7202 a43c f454 fa3d 30a6 86bd
00000060: e25a a43d 8268 3abe d4bc c4bd a483 9cbd
00000070: 98dd 0cbe 05a8 053e 581c c7bd 6688 cf3b
00000080: 6ca4 383e 5028 a33d 68e7 71be e90e 823c
00000090: 4960 c7bd d80d 363e 7a5d f7bd eff1 c9bd
000000a0: 4a83 dabd d184 64bc d87d 39bd 93cb 4cbd
000000b0: 8da1 023f b04a 293e 51a8 0f3e 181e 3fbe
000000c0: 1f34 a13c 8f92 94bb 0f53 563c ea29 b2bd
000000d0: 3f83 6cbe 5865 1d3e fe98 64bd 365b d93d
000000e0: 2cf2 52bd fc94 00be 652b 0dbe e01d 87bd
000000f0: ec92 963d b67a 1cbe 1c20 bbbe 84f8 24bb
00000100: 082d 10bd 07c4 6bbe 7a42 4f3d c26a 463e
00000110: 67f7 153d 6aa9 633e d503 46be 8a13 983d
00000120: 2056 b93c 4fb7 d4bd bc3f 88be 6c49 9abd
00000130: bf0e 0ebe de2e 1a3e b361 dabd 5d5e 953a
00000140: 170b 46be 0445 ffbb 9222 43bd dbe8 83be
00000150: fd59 ddbd 4b7f c23d b428 d53d 3ed3 f13b
00000160: 4497 4c3e 8ae6 043e 2a33 b4be f732 66be
00000170: 7894 b5bc d439 3a3c 9d39 4ebc e987 9ebe
00000180: 5a08 223e 39ee 4ebc ab0a 3c3e 26ae 0bbd
00000190: 0937 53be cb71 483e 3ce9 523d 5677 4e3c
000001a0: 6b40 703d f66d a8bd 1e46 ba3d 9eb2 413d
000001b0: 0b7b 613e 363e 70be ee07 14be 17a9 e93d
000001c0: 62ad 97bb fa74 703e 903b 093e 0de9 0239
000001d0: 34dd d2bd d2f1 7f3e f2fc 5bbd 1524 03be
000001e0: e192 72be c21f c93d 7839 bcbd c21a 50be
000001f0: b9be 1a3c 07ea 0e3e 117d d43d 0f3f 75bd
00000200: e867 a1be e2b8 843c 3dae 253e 6d2e 34bd
00000210: 43e2 1d3d dafc 9cbd c603 0d3d 4740 23be
00000220: a462 b3be 1e23 aabd 0a69 fabd 5479 d5bd
00000230: 7685 4cbe b366 533d ded3 5dbc 6269 1d3b
00000240: fd90 1c3e 25ff ed3c b838 60bd a1fe 863c
00000250: 1aa3 373d b75b 1bbd eae9 89be bf6c 943e
00000260: 7cd5 42be 4f88 1a3e 62fc a3bd 391a d83a
00000270: dbc4 62be 6d74 753c 8912 2b3e 3c04 71bb
00000280: 4154 3c3e e52b 30be a66e b9bc f122 a83d
00000290: 7c2b d03d e92a f0bd b06e 4dbc 8823 35be
000002a0: a787 0a3e 9fda 4abe d164 c73d c70c 123e
000002b0: 96e0 573e 472f 1cbe 9713 b23e d036 fdbd
000002c0: f3f4 cabd be9b ac3d 1e90 8dbd 966a 5d3d
000002d0: 6ede f1b9 7f10 b13e 1998 893c 2010 8fbe
000002e0: 065b 463b 0411 2cbe 141b 1f3e 4a77 82be
000002f0: b79b 46be 533d 283d 7bba 853e d3f7 903e
00000300: 1bb2 d8bc a166 253f 20be 483e 1bfd ce3d
00000310: 43aa 783e 842f 353e 7a84 e03c 4187 92ba
00000320: a36a 9f3d 7ce6 42bc e42b f03d b7d0 523d
00000330: d0ac d9bd 8a2d 23bc b618 3b3d d38a e03d
00000340: 50b5 6ebd 80da fb3c cc82 a63b dbcf 18be
00000350: 8ec5 a83d 0625 15be c2d9 523d 58aa f4bd
00000360: f072 81bc b946 253b 9cf5 183d eebc ac3d
00000370: 241b 6a3e b0a3 f1bd 78b4 1f3d 3f10 65be
00000380: 66cc 58bd 4dac 603c 1fae b13d 6a99 b5bc
00000390: 23ca e83d de07 84be ed06 cdbe a9b3 00be
000003a0: 3cc0 b73d 8ccf ed3d 7466 903e d0e9 d63d
000003b0: d54e 253d 4928 7c3e 524d ca3c 9dce 8dbc
000003c0: 628b a7bd e89e 58be 1a31 083d 758c 793e
000003d0: 8ab6 0abe 5c11 42bc ba0c e03d a5af 283d
000003e0: 6089 38be 70b0 7ebd bc5b 36be c7d8 acbb
000003f0: 3093 52bd a160 81bd 629e 4c3e 7569 f1bd
0.023051227 0.2462878 -0.043731198 -0.13560554 0.075041376 0.02935993 -0.0058053383 -0.25131473
0.023567297 -0.008764494 0.19965684 0.12003514 -0.20372774 0.019875295 0.11492551 0.050998993
-0.16058753 -0.18139823 0.044949267 0.1075703 0.028729796 0.020020697 0.12223235 -0.065746665
0.08025147 -0.18203929 -0.096063286 -0.07642296 -0.13756406 0.13052376 -0.09722203 0.0063333986
0.18031472 0.079666734 -0.2362343 0.01587625 -0.09735162 0.17778718 -0.12078376 -0.09860598
-0.10669573 -0.0139476815 -0.04528603 -0.04999883 0.51027757 0.16532397 0.14029051 -0.18663824
0.019678174 -0.0045340727 0.013081326 -0.08699401 -0.23096941 0.15370691 -0.055809967 0.106131
-0.051500484 -0.12556833 -0.13786085 -0.06597495 0.07352242 -0.15281186 -0.36547935 -0.002517254
-0.035199195 -0.23023997 0.050600506 0.19376662 0.036612894 0.22232595 -0.193374 0.07425602
0.022624075 -0.10386526 -0.26611125 -0.07533535 -0.13872813 0.15056941 -0.10663166 0.001139592
-0.19340168 -0.0077902097 -0.04764039 -0.25763592 -0.108081795 0.094969355 0.10408154 0.0073799184
0.19979578 0.12978569 -0.35195285 -0.22480379 -0.022165522 0.011366326 -0.012586978 -0.30963066
0.15823498 -0.012630039 0.18363445 -0.034101628 -0.20626463 0.19574659 0.05149196 0.012601694
0.058655184 -0.082240984 0.09095405 0.047289483 0.22019593 -0.23461232 -0.1445615 0.114092045
-0.004628823 0.23482123 0.13401628 0.00012484584 -0.102960974 0.24994591 -0.053708024 -0.12806733
-0.23688842 0.098205104 -0.09190649 -0.20322707 0.009444886 0.13956462 0.10375417 -0.05987459
-0.31524587 0.01620144 0.16179748 -0.043989588 0.038545858 -0.07665415 0.034427427 -0.15942489
-0.35036194 -0.08307479 -0.12227066 -0.10423532 -0.19972786 0.051611613 -0.013539283 0.0024019112
0.15289684 0.029052326 -0.05474159 0.016478838 0.04483328 -0.037929263 -0.26936275 0.28989217
-0.1902675 0.1509106 -0.080071226 0.0016487307 -0.22145407 0.014981371 0.1670629 -0.0036776206
0.18391515 -0.17204244 -0.02263577 0.082097895 0.10164544 -0.117269345 -0.012538597 -0.17689335
0.1352831 -0.1980996 0.09736026 0.14262687 0.21081766 -0.1525241 0.3478057 -0.1236397
-0.099100016 0.08428143 -0.06912254 0.054056726 -0.00046132825 0.34582898 0.016796159 -0.2794199
0.0030266657 -0.16803366 0.15537673 -0.25481635 -0.19395338 0.04107411 0.26118836 0.28314075
-0.026452115 0.64609724 0.19603777 0.1010687 0.242837 0.17693907 0.02740692 -0.0011179225
0.07784011 -0.011895772 0.117271215 0.051468577 -0.106286645 -0.009959588 0.045677863 0.109639786
-0.05827838 0.030743837 0.00508151 -0.1492304 0.082408056 -0.14564905 0.0514772 -0.11946553
-0.015801877 0.0025219156 0.037343606 0.08434473 0.22861916 -0.11798799 0.038990468 -0.22369479
-0.052929305 0.013712955 0.08675789 -0.02216788 0.113666795 -0.25787252 -0.40044346 -0.12568535
0.08972213 0.11611852 0.28203166 0.10493815 0.040358383 0.24624743 0.024695072 -0.017310435
-0.08180882 -0.21154368 0.033249952 0.24369986 -0.13546196 -0.011844959 0.109399274 0.041183133
-0.18021154 -0.062179983 -0.17808431 -0.0052748653 -0.0514099 -0.063172586 0.19982293 -0.117876925

module.stream2_stage3.0.bias f4 [16]
00000000: 0ec7 763d 3815 253b 62f7 49ba 02c7 adbd
00000010: 115c 3fbd 5cfd 4abd 3894 afbd 115d b23b
00000020: 50b3 8c3c e851 063e 2fc0 c2bd 2ce5 8abd
00000030: ce56 993c 8b52 95bd 227a f53d 8aaa 6f39
0.060248427 0.002518965 -0.00077044044 -0.08485223 -0.04671866 -0.04955803 -0.08573192 0.0054432233
0.017175347 0.13117182 -0.09509312 -0.06781992 0.01871815 -0.072911344 0.119861856 0.00022856347

module.stream2_stage3.1.weight f4 [16]
00000000: d94b bb3f 5aed ab3f 04b5 243f 7650 3e3f
00000010: cc3f 693f 43dc 403f 1b7a 8a3f ee82 3f3f
00000020: 6571 653f 8422 943f 3436 403f 8d09 353f
00000030: d56b 8f3f 41b7 1e3f 77f0 493f f8b7 b03f
1.4632522 1.3431809 0.6433871 0.74341524 0.9111297 0.7533609 1.0818514 0.7480916
0.8962615 1.1573033 0.7508271 0.707177 1.1204783 0.61998373 0.78882545 1.3806143

module.stream2_stage3.1.bias f4 [16]
00000000: cb80 ecbd 780a 62bd f6c7 e2bd 9b3b 75be
00000010: fec6 f2bd 9a9c 29be 625e e4bd 8e51 41bd
00000020: 0feb 8ebd 1c11 85be 15a4 8a3e 0a0e 3bbe
00000030: 09f1 0e3e 4d40 f0bc ef3c 583d 52e1 943c
-0.11548003 -0.055185765 -0.11073296 -0.23948519 -0.11854361 -0.16563645 -0.111508146 -0.047196917
-0.069784276 -0.25989616 0.2707831 -0.18267074 0.13959135 -0.029327536 0.052792486 0.018173847

module.stream2_stage3.1.running_mean f4 [16]
00000000: a572 313d b20d 3ebc d5da 2bbf 9961 68be
00000010: e924 96bd 6fd3 19bf 6d1d f7bd bcea 8f3f
00000020: d4fa 9e39 9b26 de3d 46f2 0f3f 8050 a3be
00000030: cc4f fb3c 7a47 363f 7912 1c3e 31a6 88bc
0.043322224 -0.011599945 -0.67130786 -0.2269348 -0.07331259 -0.6008825 -0.120661594 1.124351
0.0003032299 0.10847207 0.56229055 -0.31897354 0.030677699 0.71202815 0.15241422 -0.016680809

module.stream2_stage3.1.running_var f4 [16]
00000000: 897e 083c 57fe 9c3b 52d0 d73d 4489 943c
00000010: 9941 bc3b 9530 833d 4f56 0d3c 17b1 853e
00000020: fc2c 023c e79a e83b 5b4d c93d b093 863c
00000030: c48c f23b 1ce4 273e 0bdd 423b d1a9 163c
0.00833095 0.004791062 0.10537781 0.01813186 0.0057451245 0.06405751 0.008626535 0.2611167
0.007945295 0.007098544 0.098292075 0.016427845 0.0074020345 0.1639561 0.0029733803 0.009195761
